Found 12522 images belonging to 67 classes.
Found 3098 images belonging to 67 classes.
Using device: /GPU:0
Model architecture saved to /kaggle/working/model/model_architecture.png
Model Summary:
Model: "functional"
┏━━━━━━━━━━━━━━━━━━━━━━━━━━━━━━━━━━━━━━┳━━━━━━━━━━━━━━━━━━━━━━━━━━━━━┳━━━━━━━━━━━━━━━━━┓
┃ Layer (type)                         ┃ Output Shape                ┃         Param # ┃
┡━━━━━━━━━━━━━━━━━━━━━━━━━━━━━━━━━━━━━━╇━━━━━━━━━━━━━━━━━━━━━━━━━━━━━╇━━━━━━━━━━━━━━━━━┩
│ input_layer (InputLayer)             │ (None, 224, 224, 3)         │               0 │
├──────────────────────────────────────┼─────────────────────────────┼─────────────────┤
│ conv2d (Conv2D)                      │ (None, 224, 224, 32)        │             896 │
├──────────────────────────────────────┼─────────────────────────────┼─────────────────┤
│ max_pooling2d (MaxPooling2D)         │ (None, 112, 112, 32)        │               0 │
├──────────────────────────────────────┼─────────────────────────────┼─────────────────┤
│ conv2d_1 (Conv2D)                    │ (None, 112, 112, 64)        │          18,496 │
├──────────────────────────────────────┼─────────────────────────────┼─────────────────┤
│ max_pooling2d_1 (MaxPooling2D)       │ (None, 56, 56, 64)          │               0 │
├──────────────────────────────────────┼─────────────────────────────┼─────────────────┤
│ last_conv (Conv2D)                   │ (None, 56, 56, 128)         │          73,856 │
├──────────────────────────────────────┼─────────────────────────────┼─────────────────┤
│ max_pooling2d_2 (MaxPooling2D)       │ (None, 28, 28, 128)         │               0 │
├──────────────────────────────────────┼─────────────────────────────┼─────────────────┤
│ flatten (Flatten)                    │ (None, 100352)              │               0 │
├──────────────────────────────────────┼─────────────────────────────┼─────────────────┤
│ dense (Dense)                        │ (None, 256)                 │      25,690,368 │
├──────────────────────────────────────┼─────────────────────────────┼─────────────────┤
│ dropout (Dropout)                    │ (None, 256)                 │               0 │
├──────────────────────────────────────┼─────────────────────────────┼─────────────────┤
│ dense_1 (Dense)                      │ (None, 67)                  │          17,219 │
└──────────────────────────────────────┴─────────────────────────────┴─────────────────┘
 Total params: 25,800,835 (98.42 MB)
 Trainable params: 25,800,835 (98.42 MB)
 Non-trainable params: 0 (0.00 B)


Loaded 15620 images belonging to 67 classes.
Train samples: 12496 (80.0%)
Test samples: 2186 (14.0%)
Val samples: 938 (6.0%)
Found 12496 validated image filenames belonging to 67 classes.
Found 2186 validated image filenames belonging to 67 classes.
…
